…
https://localhost:8080/"},"id":"vej4HwkI_axU","executionInfo":{"status":"ok","timestamp":1716098081346,"user_tz":-300,"elapsed":7,"user":{"displayName":"Ahmad Hassan","userId":"15315243366983422703"}},"outputId":"89c6a445-effc-4c6c-ce9d-7e17314b71c8"},"execution_count":null,"outputs":[{"output_type":"stream","name":"stdout","text":["Model: \"sequential\"\n","_________________________________________________________________\n"," Layer (type)                Output Shape              Param #   \n","=================================================================\n"," dense (Dense)               (None, 32)                384       \n","                                                                 \n"," dropout (Dropout)           (None, 32)                0         \n","                                                                 \n"," dense_1 (Dense)             (None, 64)                2112      \n","                                                                 \n"," dense_2 (Dense)             (None, 32)                2080      \n","                                                                 \n"," dropout_1 (Dropout)         (None, 32)                0         \n","                                                                 \n"," dense_3 (Dense)             (None, 16)                528       \n","                                                                 \n"," dense_4 (Dense)             (None, 1)                 17        \n","                                                                 \n","=================================================================\n","Total params: 5121 (20.00 KB)\n","Trainable params: 5121 (20.00 KB)\n","Non-trainable params: 0 (0.00 Byte)\n","_________________________________________________________________\n"]}]},{"cell_type":"code","source":["history_2 = model_2.fit(\n","  
…
https://localhost:8080/"},"id":"eGLOR1M8HLyI","executionInfo":{"status":"ok","timestamp":1716098120691,"user_tz":-300,"elapsed":5,"user":{"displayName":"Ahmad Hassan","userId":"15315243366983422703"}},"outputId":"cc664881-6017-48f5-830c-2818f505d219"},"execution_count":null,"outputs":[{"output_type":"stream","name":"stdout","text":["Model: \"sequential\"\n","_________________________________________________________________\n"," Layer (type)                Output Shape              Param #   \n","=================================================================\n"," dense (Dense)               (None, 64)                768       \n","                                                                 \n"," dropout (Dropout)           (None, 64)                0         \n","                                                                 \n"," dense_1 (Dense)             (None, 32)                2080      \n","                                                                 \n"," dropout_1 (Dropout)         (None, 32)                0         \n","                                                                 \n"," dense_2 (Dense)             (None, 8)                 264       \n","                                                                 \n"," dense_3 (Dense)             (None, 1)                 9         \n","                                                                 \n","=================================================================\n","Total params: 3121 (12.19 KB)\n","Trainable params: 3121 (12.19 KB)\n","Non-trainable params: 0 (0.00 Byte)\n","_________________________________________________________________\n"]}]},{"cell_type":"code","source":["history_5 = model_5.fit(\n"," 
…
